models/wake/hey_jeeves.onnx (onnx, 205430 bytes, 9 tensors)

layer1.weight f4 [32, 1536]
000000 3e 01 35 bc 0f 5f 6b 3d f3 d4 61 bd 35 f8 7f 3d
       -0.011047659 0.0574637 -0.055134725 0.062492568
000010 1f 4c 2e 3e e3 22 74 3c d9 d7 cf 3d 3a 06 24 bb
       0.17021225 0.014900896 0.101485915 -0.0025028125
000020 77 f1 45 bc 1a 0b 11 3d cd 81 0f bc a6 69 23 3d
       -0.0120814955 0.035410978 -0.008758974 0.039895676
000030 20 e7 9d bc 8c 97 92 3d f6 62 8a bd b2 1a d3 3d
       -0.019275248 0.071578115 -0.067571566 0.10307826
000040 a0 c4 17 3d 23 ab 14 3e 86 fe ef bb bf f9 95 bd
       0.03705275 0.14518408 -0.0073240427 -0.07323026
000050 dd a6 d7 bd cc 53 13 3d 10 30 11 bd 8d d2 30 bd
       -0.105298735 0.035968587 -0.035446227 -0.043169547
000060 45 6b 4c be 48 94 38 3d d2 87 8f bd b3 46 4d bd
       -0.19962795 0.045063287 -0.070083275 -0.050116252
000070 e0 87 cd 3d 6a 2f bd bd 04 6d 4a 3c b3 f0 de 3d
       0.10035682 -0.09237559 0.012355093 0.108857535
000080 03 03 8d bd 81 92 0a bd 38 1d 4f bd 3f 4f 37 3e
       -0.0688534 -0.033831123 -0.050564975 0.17901324
000090 b3 a2 a5 3c e6 1a 44 3d 4f f3 ab 3c e3 b3 cf 3c
       0.020219183 0.047877215 0.020990042 0.025354331
0000a0 f4 ad 87 bd 1b 16 b2 3d 0e 66 de 3c c1 cd ac bb
       -0.06624976 0.086956225 0.027148273 -0.005273551
0000b0 79 8b d2 bd 77 1b 06 be 05 9b 07 bd 53 df bb bd
       -0.102805085 -0.13096415 -0.033106823 -0.09173455
0000c0 44 1c 29 3d d5 28 85 3d 34 9f 88 3c 13 c6 50 3d
       0.04128672 0.06501929 0.016677476 0.05097015
0000d0 c4 0e 34 3d 4e bc d7 3d dc af 52 bd eb 79 96 bd
       0.043959394 0.10533963 -0.051437244 -0.07347473
0000e0 b5 6b c0 3b 8c 7d 54 3c 3b 26 87 bc e5 32 b6 bd
       0.0058722147 0.012969386 -0.016497722 -0.08896426
0000f0 6d df 51 3d 7d 9d 2a 3d be f4 e3 3d 0b 64 ef bd
       0.051238466 0.0416541 0.11130665 -0.116890036
000100 24 c1 6f 3d e5 e5 bc 3d 07 aa 7d 3d f7 c1 38 bd
       0.058533803 0.092235364 0.06192973 -0.045106854
000110 66 c0 df bd 8c a4 d2 3d b5 23 dd bb 56 ce a9 3d
       -0.10925369 0.10285291 -0.0067486414 0.082913086
000120 75 ec b5 3d 56 ed 12 bd a6 78 af 3c 49 1f c9 3d
       0.08882991 -0.035870872 0.021419834 0.0982042
000130 2f 12 33 be b6 e5 0f be e8 8c 11 bd a7 26 98 bd
       -0.17487405 -0.14052472 -0.03553477 -0.07429247
000140 fa 8e a0 3d 65 9f 38 3d d4 77 b9 3d b8 ce 57 3b
       0.078397706 0.045073885 0.090560585 0.003292961
000150 cb 57 c2 3d b7 72 71 bd f0 2a 08 be 56 21 3e 3c
       0.094894014 -0.05894729 -0.1329763 0.011604628
000160 0e d5 6d 3d 34 3f 86 bc ec b9 d3 3d d2 b6 f1 bc
       0.058064513 -0.01638756 0.10338196 -0.02950612
000170 32 ff 77 3d ae 81 55 bd 5d 99 9c 3d 5f 6a f6 3d
       0.060546108 -0.052125625 0.07646439 0.120320074
000180 6f f6 94 3c c7 7e ab 3d cc ac 03 3c 3a 72 5e 3d
       0.018183915 0.0837379 0.008036803 0.054308154
000190 61 1e de 3d 8c 1b fe 3c 21 76 35 3d 53 85 73 bd
       0.10845638 0.031018995 0.04430211 -0.05945332
0001a0 8c 09 2c bd 6d 51 7a 3d 9c 64 cd bc 52 cc 91 3d
       -0.042001292 0.06111281 -0.025072388 0.07119049
0001b0 79 b8 22 bd 7a 92 c8 3d d8 8c de bd 89 54 56 3d
       -0.039726708 0.09793563 -0.108667076 0.052326713
0001c0 bc 76 2c 3d f9 98 10 3d 96 70 c3 3d 28 77 90 bc
       0.04210542 0.035302136 0.095429584 -0.017634943
0001d0 33 26 bd bd 64 cc 72 3c 77 e7 7e bd 7f 25 50 3d
       -0.092358015 0.014819238 -0.06223246 0.05081701
0001e0 2c d7 05 be 25 ae 8c 3d 95 d8 89 bd bd 0f ed bd
       -0.13070363 0.06869153 -0.06730763 -0.115752675
0001f0 35 5d cd 3d a1 db 45 be 32 7e 3d 3d e6 d8 2e 3d
       0.100275435 -0.19322063 0.046262927 0.04268732
000200 ac 6e e0 bc d4 19 cc 3c 5b 8b 8f bd 8e d4 cf 3d
       -0.027396522 0.02491466 -0.07009002 0.101479635
000210 4b 71 09 3d 0f 82 15 3d bd fd 8e bd 3b 3d 1d 3d
       0.03355531 0.036500987 -0.069819905 0.038388472
000220 18 88 87 bb c3 25 fd 3c 3c b3 63 3c 48 93 68 bd
       -0.0041360967 0.030901795 0.013897713 -0.056781083
000230 6d 7b 49 bd d4 f8 f6 bd d9 c8 46 bd b2 54 ba bd
       -0.049189974 -0.12059179 -0.048531387 -0.090981856
000240 ff 07 13 3d 24 da 9d 3d d5 0d dc bb a2 b8 92 3c
       0.035896298 0.07707623 -0.006715516 0.017910305
000250 a8 af be 3c b7 ec a5 3d 9f c4 80 bd 5a 65 bc bd
       0.023277119 0.081017904 -0.062875025 -0.09199019
000260 14 4f 83 bd b5 f9 05 3d f7 6b 94 bb 2b 9d 83 bd
       -0.06411567 0.032708842 -0.004529472 -0.06426462
000270 f4 2d 99 bc cc 5b 05 3e 90 52 f9 3d 8a f7 b7 bd
       -0.01869867 0.13023299 0.12173951 -0.08982761
000280 6e e0 96 3d e7 97 f5 3d 7f 9a d4 bb 19 64 7d bd
       0.07367025 0.11991864 -0.006488144 -0.06186304
000290 5d b0 dd bd 3f 32 04 3c b9 94 92 bd 99 1b 99 3d
       -0.10824654 0.00806862 -0.07157273 0.07475967
0002a0 71 5a b4 3d 75 db 09 bd 33 2c 93 3d ce 8d fe 3c
       0.08806313 -0.033656556 0.07186165 0.031073477
0002b0 d2 68 b2 bd 0a 74 98 bd 56 b3 83 bd 6d b5 a3 bd
       -0.08711399 -0.07444008 -0.0643069 -0.079935886
0002c0 79 82 f0 3d 86 11 60 3d 48 31 43 3d d0 73 14 bd
       0.11743636 0.05470421 0.04765442 -0.03624326
0002d0 f9 e0 92 3d 2e 1a d2 3c 3b fa 3f bd a7 76 5a bc
       0.071718164 0.02564725 -0.046869498 -0.013333953
0002e0 9f a3 75 3d 5d 8b 9f 3c 80 13 14 3d 90 2e 48 bd
       0.059970494 0.019475633 0.03615141 -0.04887253
0002f0 77 3b 4f 3d 84 2c 34 bc d4 3e 7c 3d f4 ee b7 3d
       0.05059382 -0.0109969415 0.061583355 0.089811236
000300 50 d8 db bc bd b2 c5 3d 6d c6 22 3d b3 d9 fc 3d
       -0.026836544 0.09653232 0.039740015 0.1234621
000310 ac e6 c4 3d be bf 32 3c b7 7b ac 3b 62 c9 4a 3c
       0.0961431 0.010909973 0.0052637714 0.012377115
000320 22 9f 2f bc 93 d2 c4 3c 52 50 c8 bc 26 89 33 3d
       -0.010719093 0.02402619 -0.024452362 0.043831967
000330 ce dd 6a bc e3 49 e8 3c cc c5 f1 bc 6c cc 1e bd
       -0.014335109 0.028355544 -0.029513262 -0.03876917
000340 13 92 74 3d f7 62 63 bc e3 94 39 3e de e4 06 bd
       0.05970962 -0.0138785755 0.18123202 -0.03293311
000350 82 ba 07 be cc bf 9d 3c 6b 24 28 bd e8 85 28 3e
       -0.13254741 0.019256495 -0.041050356 0.16457331
000360 e3 76 8b bd 6a 6f b8 3d 1b 19 0d be 07 d9 da bd
       -0.06809785 0.090056255 -0.13779108 -0.10685926
000370 7a 8c a4 3d 06 33 10 be b1 c7 b1 3b 7b 1f 98 bc
       0.08034606 -0.14081964 0.0054254164 -0.018569699
000380 ce 9d a9 bc 2f db 2c bd 29 d5 50 bd 0d 48 8e 3d
       -0.02070513 -0.042201217 -0.050984535 0.06947336
000390 3e 81 3d 3d 66 f5 37 3d f6 cb 74 bd 26 10 b2 3b
       0.046265833 0.044911765 -0.059764825 0.005434054
0003a0 f7 2b 40 bd 65 b1 d8 3d 6e ee 97 3c 7b 02 83 bd
       -0.04691693 0.1058071 0.01854631 -0.063969575
0003b0 c4 22 96 3a ab e3 83 3b eb 31 87 bd 30 6a a5 bc
       0.0011454453 0.004024943 -0.06601318 -0.020192236
0003c0 6d c0 2b 3d 65 de 14 3d 4f ea 26 bc ef ef 0c 3d
       0.04193156 0.036344904 -0.010187699 0.034408506
0003d0 59 38 4d bd 96 fe 4d 3c 18 4f a8 bd 29 f6 aa bd
       -0.050102565 0.012572905 -0.08218211 -0.083477326
0003e0 99 f8 3a bd 17 d9 24 bb 6f 1c c6 3c 7b a1 24 bd
       -0.045647237 -0.002515381 0.02418348 -0.040193062
0003f0 4c 3a ab bc cd a5 9c 3d 74 0c 0f 3e d3 88 b1 bd
       -0.020901822 0.076488115 0.13969594 -0.08668675

layer1.bias f4 [32]
000000 83 f1 1a 3d ba 0d 2e 3d 82 66 06 3d 7b 7b d8 3d
       0.03782798 0.04249356 0.032812603 0.10570427
000010 40 1d 31 3d a3 11 db 3c 39 ba b7 3d 92 69 e3 3c
       0.043240786 0.026741808 0.08971066 0.0277603
000020 c6 e6 c0 3c b2 78 cc 3c bb 46 6c 3d c6 ce 3f 3d
       0.023547541 0.024959896 0.05768464 0.046828054
000030 ee b3 1f 3d a7 d5 a6 3c aa f2 3e 3d 49 76 0c 3d
       0.038989954 0.02036555 0.04661814 0.034292493
000040 97 16 fb 3c 22 87 49 3c 39 9f d1 3b 8f b7 de 3c
       0.03065042 0.012300285 0.0063971546 0.027187137
000050 4e af 95 3d 78 0b 7e 3c bc e5 a7 3b 96 c9 83 3d
       0.07308827 0.015505664 0.005123822 0.06434934
000060 9e bb 8c 3d a2 4a a9 3c f3 e8 a3 3d 4f 37 3c 3d
       0.06871723 0.02066547 0.08003416 0.045951184
000070 5b 7f 39 3d 07 2c 26 3d be 9e 80 3d 2e ca 81 3c
       0.04528747 0.04056933 0.06280278 0.015843477

layernorm1.weight f4 [32]
000000 6b ed 85 3f 02 91 7e 3f a3 7c 86 3f 35 d7 8d 3f
       1.0463079 0.99440014 1.0506786 1.1081301
000010 09 9d 8c 3f 16 42 82 3f 4f 3b 76 3f 3b 71 80 3f
       1.0985423 1.0176418 0.9618425 1.0034555
000020 8c 6a 82 3f 4c 45 85 3f 35 7b 92 3f ed b2 7e 3f
       1.0188766 1.0411773 1.144385 0.9949177
000030 82 9a 87 3f b2 90 8d 3f 13 8f 8a 3f fc 7c 83 3f
       1.0594027 1.1059783 1.0824913 1.0272517
000040 ff 2f 8c 3f 2d 8c 9c 3f c8 e3 88 3f 49 9e 96 3f
       1.0952147 1.2230278 1.0694513 1.1767055
000050 4b eb 85 3f 5c 3b 86 3f c0 66 8f 3f 2c 88 90 3f
       1.0462431 1.0486865 1.1203232 1.1291556
000060 4a ae 88 3f fa e7 85 3f 47 cc 81 3f 89 08 98 3f
       1.0678189 1.0461419 1.0140465 1.1877605
000070 c8 1a b2 3f e7 01 89 3f d0 b2 80 3f 7e 8b 7c 3f
       1.3914423 1.0703706 1.0054569 0.9865035

layernorm1.bias f4 [32]
000000 bc c3 d1 bb 8a 72 95 bb 4a 8c 4e 3b c5 ba 46 3d
       -0.006401507 -0.0045607733 0.0031516724 0.04851796
000010 88 ca b8 3c f1 f0 8a bb 72 aa 27 3c 78 5e a9 bc
       0.022557512 -0.0042401482 0.010233508 -0.020674929
000020 06 5f 14 3d 04 dd c1 3c 00 7a c9 3c d7 5e 04 bd
       0.036223434 0.023664959 0.024594307 -0.03231701
000030 c3 d5 bb bc c2 88 d7 3c 41 0f 0d 3d 16 31 32 3d
       -0.022929078 0.026310328 0.034438375 0.043503843
000040 70 6f 67 bb 07 25 41 3d f8 6f 5b 3c 9c c0 09 3d
       -0.0035314225 0.047154453 0.013393395 0.033630952
000050 50 ad 31 3d c2 1c 8a 3c 0e b7 1d 3d 30 de 4b 3d
       0.043378174 0.016859416 0.038504653 0.04977244
000060 83 a3 f3 3c 52 40 8f 3c 02 ff 24 bb 83 a7 de 3c
       0.029741054 0.017486725 -0.002517641 0.027179485
000070 fd a7 88 3c b5 31 78 3d 91 49 29 bd f1 72 19 bd
       0.016681666 0.06059428 -0.041329924 -0.037463132

blocks.0.fcn_layer.weight f4 [32, 32]
000000 29 81 12 3e 35 2d 1f 3e 2c 25 0d 3e f7 ba 4a 3d
       0.14307083 0.15544589 0.13783711 0.04949471
000010 3a c0 70 3d 9f a4 8c 3c 56 e4 a1 3c 26 52 f1 3d
       0.05877707 0.017168341 0.0197622 0.11783247
000020 53 22 35 3e b6 21 4a 3e 7d 83 cb bd 5f b2 15 3e
       0.17688875 0.19739422 -0.09937189 0.14618824
000030 4f d6 fd 3d ab 4e 5a 3e 1e 9b 67 be 3e 19 dd 3d
       0.12394392 0.21319072 -0.22617766 0.1079583
000040 43 61 e2 3d d0 45 24 3e db 86 22 3c 83 6d 2a 3e
       0.110537075 0.16042256 0.009919847 0.16643338
000050 c5 76 19 be bf c4 b2 3d 1d c4 a4 3e 42 1d 76 bb
       -0.14986713 0.087289326 0.32180873 -0.003755406
000060 99 c5 2f be 2a 29 4f 3d 48 77 02 3e 01 2f 9e 3e
       -0.17165221 0.050576366 0.12740815 0.30895236
000070 76 84 7c be 89 09 1b 3e 7b 71 a1 3d f8 83 a0 3d
       -0.24659905 0.15140356 0.07882973 0.07837671
000080 9d 0d de 3b b0 a0 9f 3d c7 83 e5 bd 1a 29 2e 3e
       0.006776525 0.077943206 -0.11206775 0.17007867
000090 a2 f9 c7 3d 45 45 d9 3d 68 a2 28 be 32 96 0f 3e
       0.097644106 0.10608915 -0.16468203 0.14022139
0000a0 97 45 22 3e 20 3a 85 3d 49 45 50 3d 6e e0 f1 3d
       0.15846859 0.06505227 0.050847325 0.11810385
0000b0 1c 79 80 3e 3c ba e2 3c c6 17 5b be 25 4b 95 bd
       0.250924 0.027676694 -0.21395788 -0.07289723
0000c0 67 a1 8e 3e 60 af 8b 3e 6d 43 68 3e 89 a7 08 3e
       0.27857515 0.27282238 0.22681971 0.1334516
0000d0 6b 72 9a bd 02 9d 71 3e 95 62 9a 3e 9e d0 af bd
       -0.07541355 0.2359505 0.30153337 -0.085847124
0000e0 4c 95 d6 bd 20 57 95 3e 7e d0 bf 3d 15 a6 6a 3e
       -0.10477695 0.29168034 0.093659386 0.22914918
0000f0 57 e3 8c be 04 1c 8e 3d 5a c8 0a bb 0f 9c 22 3e
       -0.27517197 0.06938937 -0.0021176548 0.15879844
000100 3b b6 97 bc 0e 48 fb 3d df 63 e6 3d 3b ac 12 be
       -0.018519511 0.12269603 0.11249518 -0.14323513
000110 b8 fc ac 3d b0 d0 d9 3d c9 7a e7 bc 03 ec ff bc
       0.0844664 0.10635507 -0.02825679 -0.031240469
000120 fb 47 88 3d d3 41 08 3d 26 13 2a 3e 88 a7 d5 3b
       0.06654354 0.0332659 0.16608867 0.0065202154
000130 5d df 1d 3e ce 62 ae 3c 44 82 11 be 22 ba 51 3d
       0.15417238 0.021287348 -0.14209849 0.0512029
000140 91 fa de bd aa cb 6d 3e a1 4f 88 3c c6 42 d3 3d
       -0.108876355 0.23222223 0.016639533 0.103154704
000150 21 69 1a 3d 65 2f b6 3d 98 82 c3 3d 2e 3c e7 3d
       0.037697915 0.088957585 0.09546393 0.11290775
000160 15 12 0f be de 05 bf bd 98 3d 3b 3e cb e3 2e 3e
       -0.13971741 -0.09327291 0.18285215 0.17079084
000170 ad db df 3a 30 59 e3 3d 84 6b b5 bd e2 2c d4 bc
       0.0017079018 0.111009955 -0.088583976 -0.025900308
000180 18 22 91 3e 5e 1f f6 39 82 34 5a 3e 60 a8 ee bd
       0.28346324 0.00046944147 0.21309093 -0.11653209
000190 6b 5b 70 bd 84 cb 5c bc 35 20 e7 bc 2c 70 c6 bc
       -0.058680933 -0.013476256 -0.0282136 -0.02422341
0001a0 12 d9 45 3e 48 03 92 3e f3 4c eb bd d6 77 39 bc
       0.19321087 0.28518128 -0.11489286 -0.011320075
0001b0 1c e1 39 3d 36 24 ac 3b e8 82 d1 bd 9a db 3e bd
       0.045380697 0.00525334 -0.102300465 -0.046596147
0001c0 85 de 44 3e 65 73 50 3e e3 f8 b4 3d 93 81 31 be
       0.1922551 0.2035652 0.08836534 -0.17334585
0001d0 b9 26 8f 3d ab 8f 6e 3d 81 b6 9f bc a9 5e 5f bd
       0.06989808 0.05824248 -0.019496204 -0.054533634
0001e0 96 bf 93 bd 99 28 d1 3d ce 95 4a bd be 07 52 be
       -0.072142765 0.102128215 -0.04945927 -0.20510766
0001f0 57 0e d8 bc e0 31 bf bc 7a c0 89 3e 87 9e d5 3d
       -0.026374025 -0.023339212 0.2690466 0.10430627
000200 59 b2 8d 3d 41 d9 a2 bc c8 c7 3b bb 69 c3 9e bd
       0.06918783 -0.019878985 -0.0028653014 -0.07752115
000210 40 16 80 3e 57 36 a0 3d 0a 48 d5 3a 98 fc 30 3e
       0.25016975 0.078228645 0.001627208 0.17283857
000220 1b 34 df 3d 7b 64 05 3d 78 f0 0f be b2 e6 79 3c
       0.1089861 0.03256653 -0.14056575 0.015252756
000230 54 4b 73 3e 9c 60 85 3d 3c 3b 3d 3e dc 83 08 3e
       0.23759204 0.065125674 0.18479627 0.1333155
000240 eb 57 97 3e dc 06 2c 3e 02 55 b8 3c 98 ea 20 3e
       0.29559264 0.16799492 0.022501472 0.1571449
000250 a3 51 7e bd 7c c1 6c 3e dd 52 bb 3d 80 00 0c bd
       -0.062089574 0.23120683 0.09146664 -0.034180164
000260 c2 db ce bd ce da 51 3e 11 d2 b0 bd 09 53 82 3e
       -0.10100509 0.20493624 -0.08633817 0.25453976
000270 99 e5 32 be c3 34 2d 3e 84 0b 83 bc 41 d5 09 bd
       -0.17470397 0.16914658 -0.015996702 -0.03365064
000280 eb f8 8d bc 2b 8b 53 3e f2 9a b2 bd b5 cf f9 bd
       -0.017330607 0.20658557 -0.0872096 -0.1219782
000290 77 f9 19 3e c0 7a 30 3d 43 b8 eb bc e3 92 90 bb
       0.1503657 0.043085814 -0.028774386 -0.0044120415
0002a0 2d c0 d1 3c f1 58 6a 3d 75 f6 f0 bd 23 6a 97 3d
       0.025604332 0.057213727 -0.11765758 0.07393291
0002b0 eb 65 53 3e c7 a7 42 3e 0f fe c7 3c de 16 8f 3c
       0.20644347 0.19009314 0.024413137 0.017466959
0002c0 2d 15 84 3e 6e fa 4b 3e dc 13 63 bd 44 67 8a 3e
       0.25797406 0.1991975 -0.05543886 0.2703191
0002d0 96 fc 95 3d dd 28 0a 3e 1a 61 56 3e 74 25 85 bd
       0.073235676 0.1349215 0.20935479 -0.06501284
0002e0 28 3e 2f bd 23 96 43 3e 7a 29 e5 bd 1f 42 97 3e
       -0.042783886 0.19100241 -0.11189552 0.29542634
0002f0 31 4e 14 be a9 7b 59 3e cb 46 f0 bd 00 1d d3 bc
       -0.14482953 0.21238579 -0.11732253 -0.025770664
000300 a4 90 73 3e e2 1f d7 bd 43 a6 01 3e 08 97 ae 3b
       0.23785645 -0.10504128 0.1266108 0.005328063
000310 a5 4b a4 3d 53 a1 87 bd 42 6e bd bd 39 48 32 3e
       0.080222405 -0.06622567 -0.09249546 0.17410363
000320 44 1a eb 3d 9b b4 fd 3d 10 97 5a bd b1 e8 48 3e
       0.11479619 0.123879634 -0.05336672 0.19620015
000330 75 d4 de bc 43 28 31 3e 40 a4 59 3d 63 d1 ce bc
       -0.027200917 0.17300515 0.053135157 -0.025246328
000340 1c 87 00 3e 05 32 a1 3e 23 a9 2a 3e 14 31 17 3e
       0.1255154 0.31483474 0.16666083 0.14764816
000350 71 19 fc bd 22 48 9d bc 64 fd 05 3e bb 90 f8 bd
       -0.1230954 -0.019199435 0.13084942 -0.1213698
000360 a7 fd a9 3d c4 71 a7 3d 65 77 f8 bb e9 c3 31 3e
       0.083003335 0.08175996 -0.0075825923 0.1735989
000370 c5 6a 33 be 19 42 40 3d df ac 34 3e f6 e9 33 3e
       -0.17521198 0.046938036 0.1764407 0.17569718
000380 2c 94 ab bc a3 e8 e1 3d 7a 52 48 3e 5b 3b 31 be
       -0.020944677 0.110307 0.19562712 -0.17307799
000390 f5 a7 65 3d 44 3d 2d 3d 65 22 8d bd 80 9e ea b9
       0.05606838 0.042294756 -0.06891326 -0.0004475005
0003a0 33 ac 85 3d db fa 11 3e d6 5e b6 3c 00 64 7f bd
       0.06526985 0.1425585 0.022262018 -0.062351227
0003b0 42 6e e7 3d 54 5c 34 3c c5 17 3c be ca 92 83 bc
       0.11300327 0.011008341 -0.18368442 -0.016061205
0003c0 b7 45 b8 3c 44 da 4a be 75 ee b2 bd b2 9e 18 be
       0.02249418 -0.19809824 -0.08736888 -0.14904287
0003d0 cc 30 9e 3d f1 9f 38 be ec fd cc bd 1f 28 06 3e
       0.07724151 -0.18029763 -0.10009369 0.13101242
0003e0 ba 11 13 be 77 0a 50 bd 31 36 22 3e e0 d9 bb 3e
       -0.14362231 -0.05079123 0.15840985 0.36689663
0003f0 b2 f3 26 3e 6b ee 13 3e 38 c7 64 bc f3 a4 03 bd
       0.163039 0.14446418 -0.013963513 -0.03213973

blocks.0.fcn_layer.bias f4 [32]
000000 75 60 f6 bd 0b cf 0e 3d 3e 3d 65 3d 6a 8f c7 3c
       -0.120301165 0.03486542 0.05596661 0.024360377
000010 e5 1c ac 3c 64 85 ef 3c 16 48 b8 bd 43 85 e2 bd
       0.021009872 0.02923841 -0.08998124 -0.11060574
000020 d9 99 58 bd d7 b0 16 be c7 d1 47 bd 83 ae 35 3d
       -0.052881096 -0.14715897 -0.048784044 0.04435588
000030 ef 89 08 3e bc a6 c3 3c ba d2 0d be 26 6b 82 bc
       0.13333867 0.023883216 -0.13849917 -0.015920233
000040 df cc b2 bd 72 87 3b be 44 4b 4e bd d4 cc 16 3e
       -0.08730482 -0.18313387 -0.050364748 0.14726573
000050 b1 65 5b bd 82 00 5f bb b3 e4 81 bd 76 3b db 3d
       -0.053563777 -0.0034027402 -0.06342449 0.10704701
000060 cc bd 0c 3e 59 16 61 bc 50 2c c0 3c bb 68 37 3d
       0.13744277 -0.013738238 0.02345863 0.044777613
000070 39 bb 20 be d0 76 74 3d 3e 94 6d 3e 28 8c f8 3d
       -0.1569642 0.05968362 0.23201081 0.12136108

blocks.0.layer_norm.weight f4 [32]
000000 56 9e 93 3f 91 c0 8a 3f 24 0e 97 3f 02 c3 90 3f
       1.1532695 1.0840017 1.180119 1.1309512
000010 ba 31 8e 3f 0d a3 93 3f 71 f5 86 3f 64 86 b6 3f
       1.1108925 1.1534134 1.0543653 1.4259763
000020 86 1b 91 3f a8 a5 95 3f af f5 86 3f 69 0e 8a 3f
       1.1336524 1.1691179 1.0543727 1.0785648
000030 53 4e 88 3f e3 b6 8d 3f c7 d9 9b 3f ab 88 94 3f
       1.0648903 1.1071438 1.2175835 1.1604208
000040 46 3a 9f 3f 73 dd a3 3f 2f b4 97 3f 6b 7b 96 3f
       1.2439659 1.2801956 1.1851863 1.1756414
000050 99 bf 9f 3f a9 c8 a6 3f 5b 12 8b 3f ac 80 a5 3f
       1.2480346 1.3029987 1.0864977 1.2929893
000060 c2 f5 92 3f bc 49 95 3f fc 10 8c 3f fc db 8d 3f
       1.1481249 1.1663127 1.0942683 1.1082759
000070 8f 09 9e 3f ea fa 89 3f 73 2c a9 3f a5 9c a5 3f
       1.2346667 1.0779698 1.321669 1.2938429

blocks.0.layer_norm.bias f4 [32]
000000 10 04 18 3d 8d bc 47 3c f1 2f d5 3d 40 da dc bb
       0.03711325 0.01219095 0.10409535 -0.0067398846
000010 0a f1 65 3d e4 59 2f 3d f9 22 0d bb 40 bd 8e 3d
       0.056138076 0.042810336 -0.0021535738 0.0696969
000020 5f 6c f4 3c 9c 29 a9 bb 6f 58 32 bd ab 28 84 bc
       0.029836832 -0.005162431 -0.043541368 -0.016132673
000030 35 7a 47 3d 51 97 6d 3d b1 ac 07 3e 51 10 03 3d
       0.04870053 0.058005635 0.1324947 0.031997982
000040 f2 36 a8 3d d0 35 56 3e 53 ec 8b 3d 7c e2 51 3e
       0.08213605 0.20918965 0.06832185 0.20496553
000050 39 63 6d 3e 71 b6 70 3e e3 54 e7 ba d4 14 97 3e
       0.23182382 0.23507096 -0.00176492 0.29508078
000060 aa a7 17 3d 0f 23 39 3d 3c c0 ef 3c 50 90 03 3d
       0.03702513 0.04519945 0.02926647 0.03212005
000070 70 53 00 3d c7 ba 15 3d ab 02 8c 3e 61 46 57 3e
       0.031329572 0.036555078 0.27345785 0.21022941

last_layer.weight f4 [1, 32]
000000 d6 5f f3 3d de 45 7a 3e a0 8f 30 3e 15 b2 3c 3e
       0.11883514 0.24440715 0.17242289 0.18427308
000010 59 f3 2f 3e 64 f9 39 3e 44 91 4c 3e b5 10 b9 3e
       0.17182674 0.18161541 0.1997729 0.3614556
000020 04 b1 1a 3e c2 49 a6 3e 05 ce 9f 3d 85 9b a5 3d
       0.15106589 0.32478148 0.07802967 0.080863036
000030 23 62 41 3e dd 12 2c 3e 1e 83 41 3e 7a 96 60 3e
       0.18885092 0.16804071 0.18897673 0.21932402
000040 1d 82 c5 3e 7c 58 d7 be 67 bf 92 3e ae 75 92 be
       0.3857583 -0.42059696 0.28661653 -0.28605407
000050 c9 3a c7 be 66 df c0 be ae ea 20 3e 54 92 c5 be
       -0.38912037 -0.3767044 0.15714523 -0.38588202
000060 48 25 8d 3e 2e 8f 9a 3e fa d7 c8 3d 66 00 6b 3e
       0.27567506 0.30187362 0.09806819 0.2294937
000070 9b af ac 3e 68 c3 53 3e 14 73 d5 be 86 c7 d0 be
       0.33727726 0.2068001 -0.4168936 -0.40777224
